…
6/vgg16_weights_tf_dim_ordering_tf_kernels_notop.h5\n","58892288/58889256 [==============================] - 0s 0us/step\n","58900480/58889256 [==============================] - 0s 0us/step\n","Model: \"vgg_augment\"\n","_________________________________________________________________\n"," Layer (type)                Output Shape              Param #   \n","=================================================================\n"," input_2 (InputLayer)        [(None, 384, 512, 3)]     0         \n","                                                                 \n"," sequential_1 (Sequential)   (None, 384, 512, 3)       0         \n","                                                                 \n"," tf.__operators__.getitem (S  (None, 384, 512, 3)      0         \n"," licingOpLambda)                                                 \n","                                                                 \n"," tf.nn.bias_add (TFOpLambda)  (None, 384, 512, 3)      0         \n","                                                                 \n"," vgg16 (Functional)          (None, 12, 16, 512)       14714688  \n","                                                                 \n"," flatten (Flatten)           (None, 98304)             0         \n","                                                                 \n"," dense (Dense)               (None, 128)               12583040  \n","                                                                 \n"," dropout (Dropout)           (None, 128)               0         \n","                                                                 \n"," dense_1 (Dense)             (None, 6)                 774       \n","                                                                 \n","=================================================================\n","Total params: 27,298,502\n","Trainable params: 12,583,814\n","Non-trainable params: 14,714,688\n","_________________________________________________________________\n","None\n","Epoch 1/15\n","40/40 [==============================] - 64s 1s/step - 
…
